checkpoints/params_dp1_20w.pth (torch, 693167 bytes, 8 tensors)

conv1.0.weight f4 [32, 4, 8, 8]
0.049997002 -0.010943882 -0.15480806 -0.05773797 -0.22325508 0.0357929 -0.41724515 -0.057176422
-0.0810199 0.23594688 0.21195748 -0.11248774 -0.35899884 -0.092555024 0.012880309 -0.02947943
-0.0544018 0.12659256 -0.023872009 -0.21908756 -0.37542742 -0.19483857 -0.12157568 0.31511664
-0.15036471 -0.16918775 -0.22943237 0.024185713 -0.075453065 -0.122974835 0.34084597 -0.3006856
-0.92603433 -0.8105216 -0.38720813 -0.025219586 -0.07995895 -0.3718218 -0.047120165 -0.11704174
-0.43777445 -0.05695086 -0.4328324 -0.23979996 -0.15223525 -0.09343793 0.32484537 -0.112084195
-0.06186187 0.3676404 0.09106134 -0.273518 -0.2380355 0.13778895 -0.28364488 -0.15635444
-0.35846034 0.04024097 0.22038357 0.008408788 -0.22848001 -0.12542269 -0.3989874 -0.031548172
0.09634114 0.21452552 0.007748114 -0.46747142 0.06615809 0.13863082 -0.16924754 0.20938864
-0.22297789 0.14340909 0.41671306 -0.29893818 -0.12172403 0.07630546 0.30520356 0.2555327
-0.23828022 0.19238584 0.2304806 -0.58925307 -0.39827362 -0.61164176 0.18188907 -0.07975333
-0.6104621 -0.5746868 0.0398488 -0.09183986 -0.062411632 -0.5045492 -0.19455081 -0.15424046
-0.04390521 -0.027114967 0.015058377 -0.031811267 0.18228945 -0.1406396 -0.15308921 -0.18607013
0.07776688 -0.14473289 -0.13228984 -0.039305806 0.020785436 -0.06260074 -0.059691057 -0.57471216
-0.049158093 -0.25654227 -0.40926185 -0.33747366 -0.2690926 -0.30315503 -0.5313926 0.45450807
-0.41906968 -0.14940672 0.12553407 0.010699198 0.18736082 -0.5671212 0.27617162 0.14067428
-0.20813552 0.080489665 0.5449149 -0.56348234 -0.062780075 -0.25757843 -1.0784711 -0.8433778
-0.18219149 0.2586485 1.3322499 -0.090400845 -0.1557533 0.32564077 -0.91262144 -0.37765202
-0.45040104 -0.48566368 -0.14260548 -0.15027827 -0.28913277 0.15912572 0.38267902 0.061202906
-0.17315048 -0.111430034 -0.052484028 -0.1539937 -0.39320025 0.29875654 0.3881127 0.30258477
0.032440413 0.072631404 -0.07958257 -0.10105578 -0.27484962 0.26083297 0.5381876 0.90874445
-0.041257452 -0.016314695 -0.20865461 -0.118820794 -0.28239763 0.10658534 -0.03860819 -1.2128133
-0.13278793 -0.057557102 -0.3886313 -0.002441222 0.0057716556 -0.30246568 0.2576869 -0.16822301
-0.44550186 0.2023614 -0.0035168945 0.10730004 -0.14104223 0.09517256 -0.23309223 -0.35310176
-0.29725292 -0.25630152 -2.4773557 -0.77369153 0.18161623 0.013636291 0.29530862 0.09587234
-0.1453569 -0.681205 -1.0488049 -0.12755299 -0.34993252 -0.37460354 0.120001346 0.35180634
-0.29342324 -0.2966915 -0.50326586 -0.07448956 -0.14032865 0.046250414 -0.41309178 -0.36047328
-0.2004857 -0.19403383 -0.18331462 -0.056634143 0.021583004 0.25360078 -0.11648905 -1.0883092
-0.12836686 -0.021475693 -0.09461587 0.019745622 -0.038912922 0.26247787 -0.5438804 -0.4419199
-0.16305313 -0.10392033 -0.043479968 0.0002564539 0.12121668 0.20424004 -0.3853249 -0.24182576
-0.5356432 0.056572687 0.04111005 -0.18388061 -0.2511846 0.10828102 -0.31731644 -0.35899708
-0.35818693 0.17739856 0.22354113 0.18746759 0.1268666 -0.51623124 0.11161942 -1.3045448
00000000: a8c9 4c3d f84d 33bc 0186 1ebe a67e 6cbd
00000010: fb9c 64be 939b 123d 28a1 d5be d331 6abd
00000020: c3ed a5bd 0f9c 713e 620b 593e f95f e6bd
00000030: b2ce b7be 7d8d bdbd ee07 533c d87e f1bc
00000040: 6cd4 5ebd 7ba1 013e 3b8f c3bc 7d58 60be
00000050: 0638 c0be c383 47be acfc f8bd f856 a13e
00000060: 35f9 19be 8e3f 2dbe 52f0 6abe 1e21 c63c
00000070: 2387 9abd 3bda fbbd 5d83 ae3e 77f3 99be
00000080: 9610 6dbf 587e 4fbf 2540 c6be 4e99 cebc
00000090: 85c1 a3bd 6d5f bebe 1301 41bd 94b3 efbd
000000a0: f923 e0be 4e45 69bd 359c ddbe 1f8e 75be
000000b0: 8fe3 1bbe 635c bfbd 2252 a63e 668c e5bd
000000c0: df62 7dbd 5d3b bc3e 5e7e ba3d 8d0a 8cbe
000000d0: 94bf 73be 8c18 0d3e e739 91be 611b 20be
000000e0: 1d88 b7be b7d3 243d 3bac 613e 03c5 093c
000000f0: aaf6 69be ce6e 00be 1448 ccbe a838 01bd
00000100: 814e c53d 94ac 5b3e e4e3 fd3b 6a58 efbe
00000110: e57d 873d 3df5 0d3e 3a4f 2dbe fa69 563e
00000120: 5154 64be d5d9 123e 6a5b d53e 6d0e 99be
00000130: 734a f9bd 0946 9c3d a443 9c3e 2fd5 823e
00000140: bbff 73be cb00 453e 1b03 6c3e 4ad9 16bf
00000150: 85ea cbbe 8e94 1cbf 2141 3a3e b755 a3bd
00000160: 3f47 1cbf ad1e 13bf 7f38 233d 8916 bcbd
00000170: 57a3 7fbd 232a 01bf 5438 47be 36f1 1dbe
00000180: f3d5 33bd 3520 debc 69b7 763c 884c 02bd
00000190: 16aa 3a3e d403 10be 6bc3 1cbe 2b89 3ebe
000001a0: 3e44 9f3d dc34 14be fd76 07be 20ff 20bd
000001b0: 3846 aa3c d134 80bd 9c7e 74bd 5620 13bf
000001c0: ff59 49bd 8259 83be c58a d1be 59c9 acbe
000001d0: 81c6 89be 2337 9bbe 5809 08bf 48b5 e83e
000001e0: 4d90 d6be 13fe 18be 018c 003e b04b 2f3c
000001f0: 84db 3f3e db2e 11bf 5e66 8d3e eb0c 103e
00000200: 7a21 55be c4d7 a43d 8b7f 0b3f 6140 10bf
00000210: d792 80bd 52e1 83be 570b 8abf 9ce7 57bf
00000220: 6890 3abe 946d 843e 2a87 aa3f 1424 b9bd
00000230: cb7d 1fbe 63ba a63e 8fa1 69bf 9b5b c1be
00000240: f79a e6be e9a8 f8be 2c07 12be 8ce2 19be
00000250: 3609 94be daf1 223e 81ee c33e e6af 7a3d
00000260: 5c4e 31be 6e35 e4bd 7ef9 56bd 86b0 1dbe
00000270: 8b51 c9be 9ef6 983e b5b6 c63e 64ec 9a3e
00000280: 3de0 043d c6bf 943d 30fc a2bd 55f6 cebd
00000290: 17b9 8cbe e68b 853e aac6 093f 7aa3 683f
000002a0: 93fd 28bd 65a6 85bc 8ea9 55be 5158 f3bd
000002b0: 6c96 90be 6a49 da3d 9f23 1ebd 773d 9bbf
000002c0: 8ff9 07be ffc0 6bbd affa c6be e9fc 1fbb
000002d0: 2820 bd3b c8dc 9abe 8aef 833e a742 2cbe
000002e0: d218 e4be d437 4f3e b37b 66bb 20c0 db3d
000002f0: 606d 10be d5e9 c23d bbaf 6ebe c1c9 b4be
00000300: 8931 98be f439 83be ff8c 1ec0 a610 46bf
00000310: 9bf9 393e c06a 5f3c b132 973e b858 c43d
00000320: 70d8 14be 7363 2ebf 3d3f 86bf 409d 02be
00000330: 5b2a b3be 09cc bfbe 44c3 f53d f61f b43e
00000340: 923b 96be f3e7 97be 08d6 00bf fc8d 98bd
00000350: 50b2 0fbe 1371 3d3d c480 d3be f48f b8be
00000360: 204c 4dbe ceb0 46be d4b6 3bbe 34f9 67bd
00000370: d7ce b03c f6d7 813e d091 eebd b74d 8bbf
00000380: 9a72 03be cbed afbc f7c5 c1bd 92c1 a13c
00000390: 2863 1fbd 8063 863e bf3b 0bbf 5343 e2be
000003a0: 66f7 26be 2fd4 d4bd 0d18 32bd a974 8639
000003b0: 7340 f83d 4d24 513e 4e49 c5be 2ca1 77be
000003c0: ea1f 09bf c3b8 673d 0363 283d 334b 3cbe
000003d0: 459b 80be 70c2 dd3d 4d77 a2be 77ce b7be
000003e0: 4764 b7be f8a7 353e f7e7 643e 81f7 3f3e
000003f0: 51e9 013e bb27 04bf b998 e43d 53fb a6bf

conv1.0.bias f4 [32]
-0.6123261 -0.7712167 -0.55276585 -0.8562739 -0.15002081 -1.1516651 2.0882504 -0.3909688
-0.8404006 -1.1420606 -0.5572836 -1.6818953 -0.30488068 -0.3764157 -1.156844 -1.8794749
-0.6970182 -0.92531973 2.0859437 -1.3983874 -0.7041251 -0.3186769 -0.39429647 -0.79477304
2.0042813 -0.8256398 -0.98176056 -0.28752822 -1.0322932 -0.9947937 -0.95871836 1.8779919
00000000: 67c1 1cbf 756e 45bf 1082 0dbf c434 5bbf
00000010: 0e9f 19be c369 93bf e5a5 0540 102d c8be
00000020: 7e24 57bf 0b2f 92bf 23aa 0ebf 5848 d7bf
00000030: 5219 9cbe 8fb9 c0be 7713 94bf a292 f0bf
00000040: c96f 32bf c1e1 6cbf 1a80 0540 5cfe b2bf
00000050: 8b41 34bf 9e29 a3be 3ae1 c9be 3f76 4bbf
00000060: 2546 0040 215d 53bf a954 7bbf e636 93be
00000070: 2f22 84bf cdaa 7ebf 916e 75bf 0a62 f03f

conv2.0.weight f4 [64, 32, 4, 4]
-0.0034995328 0.098206155 -0.9142301 0.35520524 0.71397996 0.118378215 -0.14725599 -0.019495964
-0.24103084 0.22014642 0.122194916 -0.09305415 0.074700184 -0.006565941 -0.70667976 0.009926907
-0.3532707 0.33612213 -0.23612419 0.041021064 0.02710465 -0.5486012 0.0050523793 0.16946597
-0.5958922 0.55357355 0.11805398 0.06442995 -0.013111102 -0.19537802 -0.6739379 -0.2590955
-0.19792543 -0.10929436 0.35447812 0.28441572 -0.21436945 0.2431046 -0.22874798 -0.5597257
0.08136791 -0.06910041 -0.8068531 -0.5283368 -0.51039076 0.4874923 -0.47076428 -0.5211807
0.15270892 -0.083927065 -0.5428202 0.5082984 -0.6898873 -0.61800724 -0.16221648 -0.40446773
-0.4336708 -0.34660566 -0.88338614 -0.31869382 0.3010888 -0.45754802 -0.62866807 -0.62025267
0.09037169 0.076228954 0.21985283 -0.007957084 -0.11479107 -0.35141093 0.25857356 -0.21037139
-0.04609028 -0.2903589 0.2816887 -0.16856644 0.48957032 -0.19659998 -0.46958265 -0.518784
-0.213872 0.030614698 -0.26524073 0.13810265 0.014078294 0.06814082 -0.44087064 0.38644627
-0.64669985 0.2116789 -0.49878186 -0.23011728 0.22821106 0.33468938 -0.048238426 -0.59429944
-0.5175593 0.4848417 0.20389462 -0.59447265 -0.33641055 -0.08474401 -0.45890123 -1.0084814
0.024172291 -0.99638844 -0.24830742 -0.84941286 -0.66373223 -0.22455029 0.047413815 -0.31348613
-0.19735618 0.3097287 -0.40886015 0.11195454 0.03333849 0.18854558 0.06633298 0.26969212
0.0031299135 0.101730086 -0.23403074 0.09112023 -0.083824895 0.056294564 -0.13137668 0.13091125
0.22336201 0.41982085 -0.28549775 -0.03465834 -1.0016667 -0.5101082 0.25207004 -0.043412622
-0.3686404 0.082182355 0.23738183 -0.40730527 -0.014656763 0.69535035 -0.2755559 0.23976961
-0.5931085 -0.51926637 -0.14260189 0.3621013 0.3781211 0.09310593 0.33657178 0.014919285
-0.2872978 0.28970456 -0.0525082 0.18484524 -0.21228811 0.072564006 0.0842551 -0.2842196
0.66527855 0.4847994 -0.12983596 -0.530217 0.14190598 -0.14033914 0.3402232 -0.023550684
0.24373439 0.43827388 0.26361415 -0.31783953 -0.19843894 0.15345156 -0.31528082 -0.31691816
0.05939419 0.1367211 -0.35723534 -0.15291475 -0.20874782 -0.22674908 -0.32472098 0.003995902
-0.19065723 -0.0031155956 -0.11819524 -0.10262354 0.2723022 -0.2153654 0.16960888 -0.56632483
-0.937558 0.5434214 -0.3165553 -0.8705585 -0.19496973 0.09870514 -0.24691986 -0.037673097
-0.5020731 0.609782 -0.34170583 -0.28300336 -0.24117684 -0.21761234 -0.20973688 -0.41685092
0.053086337 0.49306065 -0.8672004 -0.23474267 0.26259777 -0.605436 -0.53888214 -0.63800824
0.27305284 -0.32840815 0.19005366 -0.368223 -0.30136853 0.024559274 0.06346996 -0.10970392
-0.20307778 -0.05721545 -0.10351122 0.29161105 -0.7831122 0.17203267 0.095347114 -0.17259236
0.031196773 0.44649285 -0.8813467 0.078147456 0.20505361 -0.028867714 -0.37179375 -0.20042588
-0.087531425 -0.6954275 -0.75729764 0.11669917 -0.09566827 0.0662246 -0.39109755 -0.860292
0.07500981 -0.24111444 -0.36709288 -0.24256521 0.024509815 -0.023865936 -0.24322635 -0.2795873
00000000: 6b58 65bb 4f20 c93d fc0a 6abf 76dd b53e
00000010: 64c7 363f 4770 f23d 46ca 16be 00b6 9fbc
00000020: cad0 76be 106e 613e 5441 fa3d 2d93 bebd
00000030: 69fc 983d 1b27 d7bb f7e8 34bf 77a4 223c
00000040: e6df b4be 3318 ac3e 8aca 71be b405 283d
00000050: 920a de3c 2171 0cbf 6e8e a53b 7d88 2d3e
00000060: 648c 18bf ffb6 0d3f 49c6 f13d daf3 833d
00000070: f3cf 56bc 2d11 48be 3287 2cbf 2aa8 84be
00000080: f7ac 4abe b9d5 dfbd 287e b53e f09e 913e
00000090: aa83 5bbe 6af0 783e e93c 6abe 2f4a 0fbf
000000a0: 38a4 a63d 8484 8dbd ed8d 4ebf 1541 07bf
000000b0: f8a8 02bf 9798 f93e 0408 f1be 196c 05bf
000000c0: ba5f 1c3e f4e1 abbd 44f6 0abf d81f 023f
000000d0: 749c 30bf b935 1ebf 141c 26be 6516 cfbe
000000e0: 190a debe 4c76 b1be 9825 62bf d62b a3be
000000f0: 5028 9a3e bc43 eabe 64f0 20bf e1c8 1ebf
00000100: cb14 b93d ed1d 9c3d 1a21 613e 6e5e 02bc
00000110: 9517 ebbd 22ec b3be c163 843e 996b 57be
00000120: 29c9 3cbd eca9 94be 8039 903e ae9c 2cbe
00000130: f6a8 fa3e 8151 49be 236d f0be 07cf 04bf
00000140: 4301 5bbe adcb fa3c a2cd 87be c86a 0d3e
00000150: a5a8 663c 6a8d 8b3d ccb9 e1be 49dc c53e
00000160: 1f8e 25bf 5bc2 583e 5660 ffbe dda3 6bbe
00000170: 29b0 693e 685c ab3e a895 45bd 0224 18bf
00000180: c47e 04bf 2c3d f83e c0c9 503e 5c2f 18bf
00000190: 013e acbe 448e adbd 1af5 eabe eb15 81bf
000001a0: f804 c63c 5013 7fbf 4d44 7ebe 1f73 59bf
000001b0: 5bea 29bf 83f0 65be fd34 423d 4181 a0be
000001c0: bd17 4abe c394 9e3e 1e56 d1be 6c48 e53d
000001d0: f18d 083d 1812 413e 96d9 873d 1615 8a3e
000001e0: 3c1f 4d3b dd57 d03d c1a5 6fbe 3e9d ba3d
000001f0: 63ac abbd 2195 663d 9c87 06be 990d 063e
00000200: 03b9 643e c2f2 d63e c32c 92be e7f5 0dbd
00000210: 9d36 80bf 7396 02bf 530f 813e 6fd1 31bd
00000220: 6fbe bcbe 394f a83d 3914 733e 518a d0be
00000230: eb22 70bc 7b02 323f aa15 8dbe 2a86 753e
00000240: f5d5 17bf a4ee 04bf 3b06 12be 5765 b93e
00000250: 1799 c13e 52ae be3d 2353 ac3e 0470 743c
00000260: b218 93be 2854 943e d712 57bd 1248 3d3e
00000270: 0e62 59be 709c 943d f08d ac3d 3b85 91be
00000280: b24f 2a3f a137 f83e b8f3 04be 4dbc 07bf
00000290: cd4f 113e 10b5 0fbe bc31 ae3e 5ded c0bc
000002a0: 8295 793e 6f65 e03e 6ff8 863e ddbb a2be
000002b0: 9433 4bbe 6822 1d3e 7d6c a1be 1943 a2be
000002c0: 5247 733d 9e00 0c3e 8de7 b6be af95 1cbe
000002d0: fdc1 55be e930 68be d441 a6be 0ef0 823b
000002e0: a63b 43be 052f 4cbb 5910 f2bd 4a2c d2bd
000002f0: 326b 8b3e bf88 5cbe f3ad 2d3e aafa 10bf
00000300: cd03 70bf aa1d 0b3f 8913 a2be ecdc 5ebf
00000310: 25a6 47be ec25 ca3d 8fd8 7cbe 1b4f 1abd
00000320: dd87 00bf ac1a 1c3f 11f4 aebe d1e5 90be
00000330: 10f7 76be c5d5 5ebe 44c5 56be 7c6d d5be
00000340: 0f71 593d 7272 fc3e d800 5ebf 6260 70be
00000350: 3773 863e dbfd 1abf 2ef4 09bf 8254 23bf
00000360: 95cd 8b3e 1d25 a8be 6d9d 423e ba87 bcbe
00000370: fa4c 9abe 8830 c93c 8afc 813d 73ac e0bd
00000380: 9ff3 4fbe bf5a 6abd b1fd d3bd 0b4e 953e
00000390: 0b7a 48bf 5529 303e 5945 c33d 0dbc 30be
000003a0: 6090 ff3c b69a e43e f09f 61bf c60b a03d
000003b0: 93f9 513e fc7b ecbc c05b bebe 713c 4dbe
000003c0: ad43 b3bd 8907 32bf 42de 41bf f9ff ee3d
000003d0: baed c3bd c3a0 873d f03d c8be 193c 5cbf
000003e0: be9e 993d b4e6 76be 99f3 bbbe 0463 78be
000003f0: cfc8 c83c 7f82 c3bc 5410 79be 1126 8fbe

conv2.0.bias f4 [64]
-0.9847231 -0.5226111 0.23211345 1.955251 -0.083223924 -1.5236628 0.8114911 0.39292225
0.62999594 1.1363053 -1.0738937 -1.0768358 -0.71510476 -1.3198737 -0.71424425 -0.0105805155
0.2270012 -0.23119433 0.91592216 -1.0944552 1.1090392 -0.84476924 -1.2292053 0.018363576
-1.1490965 -1.4650403 -0.7718432 -0.8262412 -0.7985358 0.96402436 -0.20588903 -0.9123775
-0.606488 0.008243879 0.090155184 -0.49003226 -0.45848212 -1.0545958 -1.635228 -0.92333865
-1.5614775 -1.1483053 -1.2850026 2.0993354 -0.6208743 0.061434567 -0.72194886 -0.14212975
-0.50336784 -0.13994706 0.31600434 0.044597343 -0.77715635 -0.77813464 -0.7980583 -1.2967238
0.33671325 1.7135447 2.3191414 0.12954098 -0.9991795 -0.598981 1.7877336 -1.416691
00000000: d016 7cbf d7c9 05bf 26af 6d3e aa45 fa3f
00000010: 4e71 aabd 6207 c3bf e1bd 4f3f 1b2d c93e
00000020: 6a47 213f 7472 913f 5975 89bf c1d5 89bf
00000030: 1b11 37bf 9ff1 a8bf b6d8 36bf e659 2dbc
00000040: 0173 683e 35be 6cbe e079 6a3f 1c17 8cbf
00000050: fff4 8d3f cc42 58bf 9956 9dbf 366f 963c
00000060: 9815 93bf 7186 bbbf 8497 45bf 8b84 53bf
00000070: d86c 4cbf 4dca 763f 93d4 52be 9291 69bf
00000080: cc42 1bbf 5611 073c 48a3 b83d 82e5 fabe
00000090: 2bbe eabe fffc 86bf 274f d1bf ec5f 6cbf
000000a0: 7fde c7bf abfb 92bf f77a a4bf 835b 0640
000000b0: 9ef1 1ebf d0a2 7b3d a4d1 38bf 768a 11be
000000c0: b7dc 00bf 484e 0fbe 52cb a13e b4ab 363d
000000d0: b8f3 46bf d533 47bf 8c4d 4cbf 0cfb a5bf
000000e0: ae65 ac3e 6f55 db3f d06c 1440 64a6 043e
000000f0: 3aca 7fbf d256 19bf 74d4 e43f 2156 b5bf

conv3.0.weight f4 [128, 64, 4, 4]
-0.0089575825 -0.021952406 -0.016788684 -0.019682283 0.0013318714 0.010457658 -0.018451065 0.012096859
0.0023616154 -0.0023001754 0.026715752 0.019036995 0.005554478 -0.015457841 -0.035966717 -0.04026077
-0.032805037 -0.0030764278 0.032714594 -0.016530443 -0.010390722 -0.0088073425 0.014297364 -0.029370364
-0.006310971 -0.016764361 0.02570043 -0.006768946 -0.003895959 -0.00706625 0.01973043 0.088246435
-0.05712637 -0.036739394 -0.0545236 -0.07296125 -0.036220726 0.0037108667 -0.035921093 -0.0848367
-0.048009172 -0.057980742 0.0111147575 -0.025976889 -0.0015845594 -0.1533757 -0.021990284 -0.05627973
-0.03691681 -0.02090372 -0.04299068 -0.039131653 -0.088973515 -0.18603854 -0.1273132 -0.14773747
-0.09610466 -0.1459382 -0.17426983 -0.10776606 -0.057229225 -0.20630705 -0.12851048 0.0036195
0.0036147106 -0.04056526 0.011839658 -0.022816692 -0.016001508 -0.040686414 -0.068199806 0.007918958
-0.025372876 -0.047262076 -0.03448161 -0.09421549 -0.08914905 -0.056781664 -0.0007273205 0.031572983
-0.022259334 -0.017938837 0.0004586556 0.039448168 0.02278016 -0.017989738 -0.018726261 -0.033873927
0.0004903594 -0.043374524 -0.0026261131 -0.043734662 -0.081907615 -0.01487196 -0.051974423 0.09856495
-0.031429153 -0.019655563 -0.07300216 -0.053258806 -0.0059985914 0.012729441 -0.015255611 -0.028090639
-0.05654959 -0.09139994 -0.077007905 -0.089284435 0.027162418 -0.018011868 -0.09409909 -0.025570583
-0.00064915116 -0.032282125 0.0027717343 -0.004312849 -0.0437285 -0.07744234 -0.06860443 0.0031914162
-0.035208914 -0.006005498 -0.08012986 0.02632632 -0.057760023 -0.056694634 0.025127573 -0.029725308
-0.049775604 -0.08796655 -0.05070218 -0.06649863 -0.1803459 -0.13923918 -0.12818299 -0.14308286
-0.062274482 -0.146223 -0.15593883 -0.068577304 -0.069719456 -0.24644913 -0.14516026 -0.18650225
-0.032834314 -0.012852987 -0.014333642 -0.0069366954 -0.07629133 -0.09737857 -0.06194003 -0.06993233
0.03745988 -0.026200196 -0.022804439 -0.03411911 -0.054918632 -0.059853654 -0.027146166 -0.004398188
0.019963706 0.01665684 0.008371342 0.035479333 -0.0076838653 -0.027698379 0.023130706 0.024403801
0.017897328 -0.006416068 -0.025947547 0.012084613 0.007088537 -0.06055723 -0.02842385 0.011304998
0.01603877 -0.036294978 0.013066572 -0.017557323 -0.032101803 -0.006288955 0.026201716 0.019555565
-0.08020025 -0.015478815 -0.011619781 -0.00048841455 -0.08415386 0.037497852 -0.054038156 0.0040161996
-0.0037282726 0.023528552 -0.02664234 0.0005096759 -0.030230563 -0.008846398 -0.048028763 -0.0078020226
0.0041407445 -0.0053168167 -0.015481592 -0.029253857 -0.023220753 -0.024638707 0.012894129 -0.033023432
0.01751861 -0.015762566 0.022654941 -0.010439085 -0.026119998 -0.009478959 0.041076012 0.010363592
-0.012312001 -0.0049302434 -0.01649731 0.0049491604 -0.017127087 -0.023252055 -0.03226091 -0.011632972
-0.030745212 -0.024866598 -0.0016136182 -0.006431368 -0.03430763 0.022317337 -0.029907556 -0.005584472
0.019184314 -0.035947643 -0.032421436 0.0014968888 0.0040493887 -0.025194064 -0.027605178 0.030354237
-0.030821197 0.0066453465 0.01995563 -0.022437878 0.010765242 0.022733927 -0.023276456 -0.00905314
-0.066914864 0.025094185 -0.03650476 -0.0382067 -0.009460954 -0.056803405 -0.05375773 -0.027169935
00000000: d3c2 12bc 88d5 b3bc 6c88 89bc bd3c a1bc
00000010: 3092 ae3a 9956 2b3c b026 97bc e731 463c
00000020: 55c5 1a3b 8abe 16bb feda da3c 79f3 9b3c
00000030: 5702 b63b e242 7dbc d651 13bd 7ae8 24bd
00000040: 935e 06bd e59d 49bb bdff 053d da6a 87bc
00000050: d93d 2abc ac4c 10bc 7e3f 6a3c 1e9a f0bc
00000060: 43cc cebb 6a55 89bc b589 d23c 09ce ddbb
00000070: 5853 7fbb 008c e7bb b6a1 a13c 8cba b43d
00000080: 57fd 69bd 0c7c 16bd 2354 5fbd b56c 95bd
00000090: 2f5c 14bd 0332 733b ff21 13bd ddbe adbd
000000a0: 44a5 44bd 377d 6dbd ac1a 363c 7ccd d4bc
000000b0: feb0 cfba 850e 1dbe f824 b4bc 9385 66bd
000000c0: 1536 17bd 473e abbc ff16 30bd 8348 20bd
000000d0: bf37 b6bd e380 3ebe 645e 02be 7e48 17be
000000e0: 85d2 c4bd d370 15be ca73 32be 74b4 dcbd
000000f0: 3169 6abd 2842 53be 4098 03be 2235 6d3b
00000100: c8e4 6c3b c227 26bd 20fb 413c 12ea babc
00000110: 9815 83bc cca6 26bd 57ac 8bbd 84be 013c
00000120: c7da cfbc e195 41bd 973c 0dbd 0df4 c0bd
00000130: c793 b6bd e493 68bd a7a9 3eba ac52 013d
00000140: 3559 b6bc 78f4 92bc b677 f039 6794 213d
00000150: 759d ba3c 375f 93bc d167 99bc 63bf 0abd
00000160: 768b 003a 7ca9 31bd de1a 2cbb 1e23 33bd
00000170: 2ebf a7bd 85a9 73bc 22e3 54bd 6cdc c93d
00000180: dbbb 00bd b404 a1bc 2882 95bd e825 5abd
00000190: d58f c4bb 258f 503c acf2 79bc 571e e6bc
000001a0: 8ba0 67bd e42f bbbd 52b6 9dbd c2da b6bd
000001b0: b883 de3c a08d 93bc 06b7 c0bd 6679 d1bc
000001c0: cc2b 2aba 433a 04bd fca5 353b cd52 8dbb
000001d0: a81c 33bd 179a 9ebd 7b80 8cbd 1427 513b
000001e0: 3937 10bd c5c9 c4bb 201b a4bd 4baa d73c
000001f0: c695 6cbd a238 68bd 57d8 cd3c 7d82 f3bc
00000200: 81e1 4bbd ce27 b4bd 17ad 4fbd 6f30 88bd
00000210: 98ac 38be b794 0ebe 6742 03be 5084 12be
00000220: 8713 7fbd 7bbb 15be 6eae 1fbe 4272 8cbd
00000230: 13c9 8ebd 295d 7cbe e4a4 14be 72fa 3ebe
00000240: 467d 06bd 5695 52bc a7d7 6abc 384d e3bb
00000250: a13e 9cbd 6a6e c7bd d4b4 7dbd ae38 8fbd
00000260: 886f 193d cba1 d6bc 60d0 babc 7bc0 0bbd
00000270: 5cf2 60bd 1b29 75bd a361 debc ad1e 90bb
00000280: ed8a a33c ed73 883c f427 093c c752 113d
00000290: efc8 fbbb b6e7 e2bc 9b7c bd3c 7bea c73c
000002a0: 6b9d 923c e13d d2bb f38f d4bc 8afe 453c
000002b0: f546 e83b dc0a 78bd 22d9 e8bc 9938 393c
000002c0: bd63 833c 0baa 14bd 2d15 563c 60d4 8fbc
000002d0: 2e7d 03bd 9413 cebb fba4 d63c fe32 a03c
000002e0: 0740 a4bd db9a 7dbc e560 3ebc f208 00ba
000002f0: dc58 acbd 5997 193d 1d57 5dbd 539a 833b
00000300: 0956 74bb f3be c03c 0941 dabc c59b 053a
00000310: 16a6 f7bc 7cf0 10bc cfb9 44bd 1ca8 ffbb
00000320: 15af 873b b138 aebb 81a6 7dbc c9a5 efbc
00000330: 7339 bebc 1dd7 c9bc e641 533c 9443 07bd
00000340: 3083 8f3c 7f20 81bc db96 b93c b208 2bbc
00000350: 9bf9 d5bc a34d 1bbc 523f 283d 0ecc 293c
00000360: 46b8 49bc e18d a1bb 5e25 87bc 912c a23b
00000370: 1b4e 8cbc 187b bebc 0424 04bd 3998 3ebc
00000380: 62dd fbbc 09b5 cbbc 0b80 d3ba 3abe d2bb
00000390: 2886 0cbd d9d2 b63c b100 f5bc f2fd b6bb
000003a0: 6c28 9d3c d63d 13bd 57cc 04bd 4133 c43a
000003b0: bcb0 843b c863 cebc 4124 e2bc 73a9 f83c
000003c0: bc7c fcbc 35c1 d93b fd79 a33c a4cf b7bc
000003d0: b360 303c 803c ba3c 44ae bebc 9f53 14bc
000003e0: a90a 89bd 5292 cd3c 0486 15bd a17e 1cbd
000003f0: 1e02 1bbc b0aa 68bd 1131 5cbd 7c93 debc

conv3.0.bias f4 [128]
-0.21905856 -0.20108528 -0.18652944 -0.109594986 -0.1331266 1.4347202 -0.2624069 -0.2058721
0.36471757 0.5179538 -0.14819212 0.033934228 1.0803998 -0.07501165 0.15610893 -0.24208249
-0.12309863 -0.30221397 -0.1746836 -0.02777156 -0.16718268 -0.12522261 -0.1393961 -0.17674284
-0.15863562 -0.40191457 -0.010654865 -0.10541698 -0.17289564 0.024520218 -0.13564864 -0.14187339
-0.09469969 -0.21210301 -0.108962685 -0.15201011 -0.3656025 -0.4037169 -0.21449904 -0.0023830025
-0.19969724 -0.15798998 0.0022184912 -0.16413398 -0.07422928 -0.27362627 0.6497017 -0.16807845
-0.12639163 -0.117504545 -0.007427937 -0.2873683 -0.12450417 -0.19293866 -0.11550711 0.28854996
-0.17637087 -0.20642425 0.2782541 -0.13145757 -0.18246052 -0.21438187 0.6024617 -0.122588865
1.290343 -0.22462161 -0.13481948 -0.21176298 -1.3569293 -0.15668781 -0.1290705 -0.18848433
-0.076726414 -0.15140066 0.12027468 -0.34776253 -0.079956435 -0.09677852 -0.14091705 -0.17304792
-0.20780732 -0.14172548 -0.15173337 -0.15265474 0.94056225 0.0058169267 -0.21407697 -0.052172787
-0.21022132 -0.13021722 0.034709297 -0.20301048 0.3762993 -0.18853645 -0.21469104 -0.11150009
-0.06749254 -0.104307435 -0.11848709 -0.07342819 -0.1095096 -0.14112295 0.22620301 1.4893066
-0.072761275 -0.38693857 0.06675624 -0.2429742 -0.03126235 0.7261801 -0.22068058 0.030891912
-0.1069531 -0.098614804 -0.5722194 0.06318767 -0.1299778 -0.16386038 -0.28165877 -0.1741983
-0.18253762 -0.1874025 -0.6919047 -0.21487673 -0.15807286 -0.219854 -0.19307227 -0.5180994
00000000: e350 60be 4de9 4dbe 9301 3fbe 5673 e0bd
00000010: 5752 08be e9a4 b73f 325a 86be 23d0 52be
00000020: 43bc ba3e 9f98 043f adbf 17be 9efe 0a3d
00000030: 8a4a 8a3f b59f 99bd 05db 1f3e 79e4 77be
00000040: 221b fcbd cabb 9abe 42e0 32be 2f81 e3bc
00000050: f031 2bbe 5b3a 00be dabd 0ebe 13fc 34be
00000060: 6071 22be bfc7 cdbe be91 2ebc dce4 d7bd
00000070: 8e0b 31be a0de c83c 7ae7 0abe 4247 11be
00000080: e9f1 c1bd 8831 59be d427 dfbd 8aa8 1bbe
00000090: 4030 bbbe fbb3 cebe a3a5 5bbe 262c 1cbb
000000a0: 6f7d 4cbe 20c8 21be 1b64 113b bd12 28be
000000b0: 8505 98bd be18 8cbe da52 263f c21c 2cbe
000000c0: cf6c 01be 39a6 f0bd 0d66 f3bb f021 93be
000000d0: 0bfc febd b691 45be fe8e ecbd d2bc 933e
000000e0: 919a 34be e160 53be 5277 8e3e d09c 06be
000000f0: eed6 3abe ec86 5bbe ee3a 1a3f df0f fbbd
00000100: f629 a53f 3503 66be 1e0e 0abe 65d8 58be
00000110: dcaf adbf c572 20be 0f2b 04be 0902 41be
00000120: bd22 9dbd c608 1bbe 9252 f63d ee0d b2be
00000130: 33c0 a3bd d133 c6bd 8f4c 10be 7933 31be
00000140: 71cb 54be 7c20 11be fe5f 1bbe 8651 1cbe
00000150: b0c8 703f eb9b be3b fe36 5bbe 22b3 55bd
00000160: 4244 57be aa57 05be 562b 0e3d fbe1 4fbe
00000170: 4daa c03e b30f 41be f8d7 5bbe 295a e4bd
00000180: 8739 8abd 239f d5bd 5ca9 f2bd 8561 96bd
00000190: 9246 e0bd 8982 10be c3a1 673e 99a1 be3f
000001a0: dd03 95bd d01c c6be 7fb7 883d 3bce 78be
000001b0: f30c 00bd f0e6 393f 17fa 61be 0911 fd3c
000001c0: 3a0a dbbd 8ff6 c9bd f87c 12bf 8a68 813d
000001d0: e718 05be 04cb 27be 9435 90be 0a61 32be
000001e0: 24eb 3abe 71e6 3fbe ab20 31bf a508 5cbe
000001f0: dadd 21be 6821 61be bdb4 45be 2aa2 04bf

out.weight f4 [2, 128]
-0.0069256844 -0.01751802 -0.094776414 0.0028487786 -0.0055866144 0.024145672 0.026680743 0.010985172
0.010634674 0.022420181 -0.007224953 0.007492279 0.025272494 0.0010430486 0.025947345 0.007025872
0.0009326642 -0.025008142 -0.0052984906 -2.3461927e-05 -0.0046966374 0.065426804 -0.028182128 -0.021376444
-0.016550193 -0.086590424 0.026161406 -0.014897989 -0.029559964 -0.10267253 -0.022158943 0.0019029451
-0.06781641 -0.015867839 -0.028595928 0.0034339076 0.08490428 -0.026330795 -9.503669e-05 -0.002734274
-0.024385165 -0.0035182862 -0.021771558 -0.020839471 0.01784582 -0.045592576 0.01098222 0.026301352
0.013487563 0.01993804 0.02442135 -0.0056946557 -0.0111327395 0.014686098 0.007571278 0.026171284
0.003155926 0.015698843 -0.11615055 0.031114483 -0.007107739 -0.013923277 0.013249529 0.005848095
0.015107433 0.021639405 -0.014226095 -0.032086756 -0.014993835 -0.025698675 0.0134599535 -0.010149488
-0.0050716833 0.033027004 0.031498186 -0.035573777 -0.010062413 0.037498306 -0.018614357 -0.010481602
0.011662004 0.011785863 -0.062960744 0.008941291 0.03843044 0.002880634 -0.0068894713 0.01694508
0.0060428157 -0.014247873 -0.024105264 0.0011954424 0.012713839 0.0039570793 -0.013938091 -0.0058955248
0.06596409 0.016217124 0.029809892 0.006229544 0.039169643 -0.0012376246 0.01749907 0.068482846
0.0014020584 -0.25107434 0.03198905 -0.048328757 -0.004967214 0.02705276 -0.01780978 -0.00452237
0.020185273 0.002270943 0.06713832 -0.016923279 -0.004073425 0.014974965 -0.028970249 -0.009692801
-0.027678968 0.044681728 -0.17724499 0.0044473875 0.025524052 -0.014931514 -0.023154853 -0.043523025
-0.020539198 -0.008376938 0.04665602 -0.015191456 -0.03683559 0.03295832 0.021499423 -0.011125432
-0.062427137 0.016438907 -0.026498856 0.024652202 0.031073844 -0.0019213753 0.07447491 -0.023770658
-0.028817832 -0.15737577 0.013503944 -0.01971068 -0.007949244 -0.023466486 -3.7258542e-05 0.013550587
0.029708982 -0.043697443 0.0087279435 0.021969972 0.00013285741 -0.006798393 0.008570168 0.01911892
-0.05164513 0.0012381948 -0.062079977 -0.006596458 -0.025239218 -0.13260955 0.0057416065 0.01908633
0.0040587573 -0.013038559 -0.17038248 -0.035353392 -0.004188413 0.011072721 0.05494963 -0.025865246
-0.0021751851 -0.0192664 -0.045637757 -0.04426313 -0.011949107 0.0070352633 -0.0026643034 -0.104175344
-0.013700076 0.02664381 -0.07580077 0.007527483 -0.035674926 -0.008483416 -0.027342211 -0.021504922
0.018404298 0.02147158 0.0267166 0.0005364399 -0.005087033 -0.0006271768 -0.015190257 0.0066120694
-0.008900212 -0.008048816 0.014436513 -0.042423733 -0.038238008 -0.015068339 0.000627344 -0.024753096
0.014970821 -0.003088459 -0.033366214 0.020840012 0.020385122 0.011358141 0.0026323535 0.004881409
-0.031999905 0.011281149 -0.0063579753 0.008500095 -0.06300305 -0.022555761 -0.00379236 -0.007436068
0.00034578465 0.022158563 0.017650878 0.026936337 -0.01516845 0.00013197676 0.074802786 0.07016773
0.002391121 0.06027228 -0.086987145 -0.04185217 0.017829895 0.022950193 -0.024694765 0.021958865
-0.007292343 -0.017481156 0.043474138 0.05628488 -0.0035459104 -0.01556176 -0.038499743 -0.0063537825
-0.010163518 0.0024696074 0.019601332 -0.015115229 -0.008277404 0.02377067 -0.026298717 -0.02504081
00000000: daf0 e2bb f381 8fbc 231a c2bd 93b2 3a3b
00000010: eb0f b7bb 25cd c53c 9391 da3c 27fb 333c
00000020: 0e3d 2e3c 87aa b73c 4cbf ecbb cb81 f53b
00000030: 4308 cf3c e7b6 883a 878f d43c 4939 e63b
00000040: 097e 743a e0dd ccbc f69e adbb 1bd0 c4b7
00000050: 40e6 99bb 7dfe 853d 35de e6bc a71d afbc
00000060: 4594 87bc 5256 b1bd 7250 d63c b216 74bc
00000070: bd27 f2bc fa45 d2bd ac86 b5bc 3e6c f93a
00000080: 54e3 8abd 45fd 81bc 0242 eabc 690b 613b
00000090: 4ce2 ad3d aeb3 d7bc 6f4e c7b8 8131 33bb
000000a0: 66c3 c7bc 0c93 66bb 445a b2bc 8ab7 aabc
000000b0: 6631 923c 48bf 3abd c5ee 333c ef75 d73c
000000c0: f0fa 5c3c 1a55 a33c 480f c83c 3c9a babb
000000d0: 1866 36bc f69d 703c 7c18 f83b 2965 d63c
000000e0: a7d3 4e3b dc9a 803c 57e0 edbd cde3 fe3c
000000f0: 09e8 e8bb 751e 64bc 8d14 593c 60a1 bf3b
00000100: 2b85 773c 1f45 b13c 9114 69bc 676d 03bd
00000110: b4a8 75bc 0786 d2bc 2387 5c3c 0a4a 26bc
00000120: 5d30 a6bb 5347 073d 3e04 013d cfb5 11bd
00000130: d2dc 24bc d397 193d 237d 98bc 06bb 2bbc
00000140: fd11 3f3c 7e19 413c 90f1 80bd 7e7e 123c
00000150: 3d69 1d3d 05c9 3c3b 13c1 e1bb 69d0 8a3c
00000160: d002 c63b e96f 69bc 6778 c5bc 64b0 9c3a
00000170: b54d 503c 63aa 813b 975c 64bc 3f2f c1bb
00000180: 2e18 873d c6d9 843c e033 f43c 3421 cc3b
00000190: 5970 203d ca37 a2ba 365a 8f3c bc40 8c3d
000001a0: 46c5 b73a d18c 80be f306 033d 60f4 45bd
000001b0: 03c4 a2bb c09d dd3c d1e5 91bc 6430 94bb
000001c0: 965b a53c 1ad4 143b d17f 893d b0a2 8abc
000001d0: 5e7a 85bb 8e59 753c 0453 edbc 8ece 1ebc
000001e0: 01bf e2bc 3004 373d b67f 35be 64bb 913b
000001f0: d117 d13c 4fa3 74bc 3faf bdbc 3345 32bd
00000200: d241 a8bc 6d3f 09bc 621a 3f3d 96e5 78bc
00000210: eae0 16bd 4eff 063d 8f1f b03c 7247 36bc
00000220: 99b3 7fbd e3aa 863c 2114 d9bc 6af3 c93c
00000230: 938e fe3c a8d6 fbba 4d86 983d afba c2bc
00000240: 6013 ecbc 1d27 21be a53f 5d3c 4b78 a1bc
00000250: 8c3d 02bc ca3c c0bc 0e46 1cb8 4803 5e3c
00000260: 4060 f33c 17fc 32bd a6ff 0e3c 5ffa b33c
00000270: a44f 0b39 0ec5 debb e469 0c3c 489f 9c3c
00000280: d889 53bd ec4a a23a 9347 7ebd 1a27 d8bb
00000290: 7ac2 cebc ccca 07be 1624 bc3b ef5a 9c3c
000002a0: 53ff 843b ae9f 55bc bf78 2ebe b8ce 10bd
000002b0: f43e 89bb 5c6a 353c dd12 613d 5ae3 d3bc
000002c0: 8d8d 0ebb 92d4 9dbc a8ee 3abd 414d 35bd
000002d0: 30c6 43bc 1188 e63b 989b 2ebb e259 d5bd
000002e0: 4976 60bc 1f44 da3c 6f3d 9bbd 1ba9 f63b
000002f0: df1f 12bd 07fe 0abc c6fc dfbc 172b b0bc
00000300: 9cc4 963c 2be5 af3c c5dc da3c df9f 0c3a
00000310: 20b1 a6bb 1f69 24ba 8ee0 78bc 0faa d83b
00000320: 32d2 11bc 2edf 03bc 2087 6c3c 82c4 2dbd
00000330: 759f 1cbd 32e1 76bc 5874 243a 01c7 cabc
00000340: 2d48 753c be67 4abb 03ab 08bd acb8 aa3c
00000350: b3fe a63c 7f17 3a3c 9083 2c3b 3af4 9f3b
00000360: 5512 03bd 92d4 383c 9056 d0bb fc43 0b3c
00000370: be07 81bd dcc6 b8bc 3e89 78bb 42aa f3bb
00000380: 6e4a b539 e085 b53c 9398 903c 98a9 dc3c
00000390: 1785 78bc 3e63 0a39 3432 993d 19b4 8f3d
000003a0: 5ab4 1c3b 11e0 763d 5126 b2bd 2e6d 2bbd
000003b0: 0010 923c 0b02 bc3c ad4c cabc 14e3 b33c
000003c0: 9bf4 eebb a434 8fbc f011 323d f98a 663d
000003d0: 8162 68bb c1f6 7ebc e8b1 1dbd 6433 d0bb
000003e0: e284 26bc 23d9 213b f992 a03c dea5 77bc
000003f0: f39d 07bc b5ba c23c 6870 d7bc 6322 cdbc

out.bias f4 [2]
2.9223492 0.8851041
00000000: c507 3b40 2f96 623f
